data.pth (torch, 5951 bytes, 6 tensors)

l1.weight f4 [8, 76]
000000 b0 73 ad bd 56 59 9a 3e 16 c1 d0 bd 0a de 30 bf
       -0.08469331 0.30146283 -0.10193078 -0.69088805
000010 6f 6a a5 3e cd 14 ad 3d e5 99 9d 3e 55 4d 18 3f
       0.32307765 0.08451233 0.30781475 0.59493
000020 31 48 ef 3e 4e 97 8d be f8 ee 82 be 50 6c 17 bf
       0.46734765 -0.276545 -0.25572944 -0.59149647
000030 6c f3 39 bd 9f 06 16 bf dc e1 93 3c f6 6f 12 bf
       -0.04539816 -0.58603853 0.018052034 -0.5720209
000040 32 0f b2 bc a3 e9 8a 3d fb c3 56 3e a1 a5 04 3e
       -0.021735761 0.06782844 0.20973198 0.12953807
000050 77 f6 c6 be b1 74 8b 3e 67 f9 e7 3e 75 2e 0f 3f
       -0.38859913 0.27237466 0.45307466 0.5593026
000060 eb de 24 3f db 98 a4 be 15 5e 34 3f e6 7a ce be
       0.64402646 -0.3214787 0.7045606 -0.4032814
000070 a7 68 b5 3e 04 e7 26 3f 04 9d ff 3d fb 7b 39 3f
       0.35431406 0.6519625 0.1248112 0.72454804
000080 4a 0e 15 3f 3b 52 17 3f 23 05 31 3f 09 21 41 3f
       0.5822493 0.5910985 0.69148463 0.7544103
000090 7c e0 ce 3d 8a 6f 0d 3f 7d ad 0f 3f da 2a 90 3e
       0.10101411 0.5524832 0.561241 0.28157693
0000a0 c5 31 f6 3e 93 a3 90 3e 09 4e 8b be 37 21 ad 3e
       0.48084846 0.28249797 -0.27207974 0.33814403
0000b0 d7 48 1f bf 0e 51 19 be 40 45 d2 3e 6c b7 3d 3f
       -0.6222052 -0.14972326 0.4106846 0.74108005
0000c0 3c 74 18 bf dc 0e 21 3e 27 fe 17 bf 95 5a f1 3e
       -0.5955236 0.15728325 -0.5937218 0.4713942
0000d0 ef 38 ad be a1 79 a4 3e 53 a7 d4 3e 41 aa e5 bd
       -0.338325 0.32124045 0.41533908 -0.11214114
0000e0 dd 03 0f 3f c9 a0 7d 3e 53 8c ce be 76 8a 18 be
       0.5586527 0.24768366 -0.40341434 -0.14896569
0000f0 17 70 d7 3e 9f e0 1c 3f 39 b5 19 be f2 3a 1c bf
       0.42077705 0.61280245 -0.15010537 -0.61027443
000100 9c fa 05 bf 35 ec 04 3f 9c 25 f8 3e 4c 59 ab 3e
       -0.52335525 0.51922923 0.48466194 0.33466566
000110 2e 61 cf 3e 1e ce 08 3f 68 72 64 3f a9 0a 9f 3e
       0.4050383 0.5343951 0.8923707 0.3106282
000120 98 12 12 3f 74 47 d7 3e a0 48 1d 3e 04 e4 54 3e
       0.5705962 0.42046702 0.15359735 0.20790106
000130 00 33 40 3f 8c 74 53 be 22 72 c4 be e8 de e3 3e
       0.7507782 -0.20649928 -0.38368326 0.44506
000140 bb 78 07 3f cf ae 1c 3f 9e 6c 41 be 9a c4 ea 3d
       0.52918595 0.61204237 -0.1888909 0.1146328
000150 9f d0 48 bd 76 99 a2 be 5c ea d3 be 3a 1f c8 3e
       -0.04902708 -0.31757706 -0.4138974 0.39086324
000160 7f dd 99 be 8b 02 fc 3e 66 4d 9a be fe 6b 04 3f
       -0.300518 0.4922069 -0.30137175 0.51727283
000170 b4 c6 64 3e d2 6f ab be c1 e0 6d 3e 7f 1d 10 bf
       0.22341424 -0.3348375 0.23230268 -0.5629501
000180 e4 93 9b be 31 98 6a be 5f e2 ff 3e 5a e0 f5 3e
       -0.3038627 -0.22909619 0.49977395 0.4802273
000190 49 de 0a 3f cf 37 7b be c6 de 21 3f b4 a7 6d be
       0.5424543 -0.24533008 0.6323055 -0.23208505
0001a0 72 ca 05 bf f1 8d dc 3e b0 6e 19 3f 8e f5 cc 3e
       -0.5226203 0.43077043 0.5993452 0.40031093
0001b0 d6 aa 03 3f b4 27 11 3f 80 bb 08 3f 42 53 2b 3e
       0.5143255 0.5670121 0.534111 0.16730979
0001c0 3b b5 5d bd a5 11 de be 62 86 9b be 13 35 93 3d
       -0.054127913 -0.43372837 -0.30375963 0.071878575
0001d0 56 92 a9 be 94 a6 8c be ec f5 16 be 40 63 c3 be
       -0.33119458 -0.2747084 -0.14742249 -0.3816166
0001e0 21 89 03 3f 92 0d 8c 3e 4f 50 d9 bd bc 21 62 3e
       0.5138112 0.27354103 -0.10611021 0.22083181
0001f0 d3 67 4a 3f 43 3e 95 be 69 7a f5 3e 4d 17 ee bd
       0.79064673 -0.29149064 0.47944954 -0.11625538
000200 38 6c 9b be 2e 2e f9 3e fa 2d d4 bd 31 a5 8c be
       -0.30356002 0.48668045 -0.10360332 -0.2746978
000210 9d e6 3b bf fb 9f ab be a2 58 71 be 3e b0 80 3e
       -0.7339876 -0.33520493 -0.23568967 0.25134462
000220 5e de 71 be e0 6b 19 3f 01 4e d6 3d 2f 90 8d 3f
       -0.23619983 0.5993023 0.10464097 1.1059626
000230 d0 cf 13 3f 4c bd 5f be dc b1 ca be eb b6 1a bd
       0.5773897 -0.21849555 -0.3958882 -0.0377721
000240 f8 ce 31 3f 12 ca 13 bd 36 e9 40 be e8 10 f3 be
       0.69456434 -0.03608138 -0.18838963 -0.47473836
000250 58 0b c3 be c5 48 f9 bd 0f 72 01 3f 2d 54 1e 3f
       -0.38094592 -0.12172083 0.50564665 0.6184719
000260 8d fe 82 be cc c4 83 3d 63 a3 1f 3f e2 d6 af be
       -0.25584832 0.064340204 0.62358683 -0.3434363
000270 29 77 cd be c6 c6 01 bf 7a ea fb 3e 35 d1 93 3e
       -0.40129974 -0.5069393 0.4920233 0.2887055
000280 d7 7a b3 3e 8e cd 20 3f 79 b8 13 3e 40 1e ee be
       0.35054657 0.6281365 0.1442584 -0.46507454
000290 c6 88 f5 3e 02 82 9f bd c0 a2 05 3f 8e 00 e4 be
       0.47955912 -0.07788469 0.5220146 -0.44531673
0002a0 68 c3 13 bd ee 94 03 3f d8 13 2b 3e d6 44 5d 3f
       -0.036075026 0.51399124 0.16706789 0.8643316
0002b0 09 e2 b8 3e ac ab 90 3d 50 cb 90 be e6 2d aa be
       0.3610995 0.07063994 -0.28280115 -0.33238143
0002c0 e8 31 b9 be 35 49 2d 3f 1d ac bc be cf 25 8d 3e
       -0.36170888 0.6768983 -0.36850062 0.27567908
0002d0 10 cb e7 3e a7 b5 bc be 49 d2 f4 bd 5b aa bc be
       0.45272112 -0.3685734 -0.11954171 -0.3684872
0002e0 b8 22 b5 be 0b af bc be d3 f4 b9 be f1 4b 3a 3e
       -0.3537805 -0.36852297 -0.363196 0.18193032
0002f0 5d 91 b4 3d 25 6e 06 3f c2 f8 cd 3e f9 c8 c3 3e
       0.08816788 0.5251182 0.4022885 0.38239267
000300 f7 3f 8f 3e cd 3c 34 3d 35 c0 aa 3e a6 4a 4a 3f
       0.2797849 0.044003297 0.33349767 0.79020154
000310 28 44 6e be 7c 35 0b 3b 6a 83 01 3f 5c 45 12 be
       -0.23268187 0.0021241596 0.50591147 -0.14284271
000320 73 aa bc be 79 df 12 be d4 7c b6 bd 66 e6 c6 3e
       -0.36848792 -0.1434306 -0.08910528 0.38847655
000330 e2 09 1c bd 47 00 87 be d6 f7 91 3e 06 da b7 3e
       -0.038095362 -0.263674 0.28509396 0.35908526
000340 ff bc 17 3f 2f 6f 2b 3f 0d 87 88 3e 48 dd 8b bd
       0.5927276 0.6696653 0.26665536 -0.068293154
000350 24 f7 de 3e ce a7 bc be 63 e7 31 3f 2a 90 fd be
       0.43547928 -0.36846775 0.69493693 -0.4952405
000360 c9 a7 7e bd 34 84 ab be 43 91 ea 3e 13 ff e4 3e
       -0.06217173 -0.334993 0.4581395 0.44725856
000370 a8 cb de be de 7a 7a 3e 87 53 ad 3e 84 ad 32 3f
       -0.43514752 0.24460933 0.3385279 0.69796014
000380 c5 ef a6 3e e9 b1 f5 3e 41 0e 98 be eb cd 04 3e
       0.32604805 0.47987297 -0.29698375 0.12969176
000390 ad 15 89 be fd 12 f3 3e e1 1b 09 3e 88 33 f6 be
       -0.2677435 0.47475424 0.13389541 -0.4808619
0003a0 93 8c 9c be 5b c7 fc 3d 7f 8e d1 3e 00 e2 df 3e
       -0.30576 0.123427115 0.40929028 0.43727112
0003b0 2a 3a cb 3e a1 25 54 3d b7 f3 81 be c3 18 19 bf
       0.39692813 0.0517937 -0.25381252 -0.5980341
0003c0 b9 15 b9 3e 76 ee ec be aa d3 fc 3e 78 4e 01 bf
       0.36149386 -0.4627568 0.49380237 -0.5051036
0003d0 96 11 31 3e 98 07 24 3f 73 16 06 3e 8d e5 43 3f
       0.17291865 0.6407409 0.13094501 0.7652214
0003e0 97 5e 67 3e 50 0d f4 3e 91 81 56 3d 67 c9 21 3f
       0.22594677 0.47666407 0.052369658 0.6319794
0003f0 9c 5f 1a 3f af e5 cf 3c 6b 9a 20 3f 85 f5 97 be
       0.6030214 0.025378076 0.62735623 -0.29679504

l1.bias f4 [8]
000000 fc 3d 65 3f 2e f6 80 3f a2 ad bc 3e 47 36 3e 3f
       0.89547706 1.0075128 0.3685122 0.7430157
000010 d4 61 98 3f 8d 03 12 3f c8 f1 12 3f d1 7f 87 3e
       1.1904855 0.5703667 0.5740018 0.26464704

l2.weight f4 [8, 8]
000000 b9 a6 40 3e 43 9b 74 bf 2e 6e cd 3f fe f8 8d 3f
       0.188136 -0.9554941 1.6049249 1.1091611
000010 7c b8 c3 be 5b 68 8e 3f 23 47 3f 3f 7d 36 b3 3f
       -0.38226688 1.1125597 0.7471792 1.4001004
000020 8b b7 ad be 48 0a c6 bd 89 fc 96 3e 7e 1f 34 be
       -0.33929095 -0.0966993 0.29489544 -0.17590138
000030 dc a6 21 be 2b 3b 84 be 20 97 0f bc a1 71 3c be
       -0.15786308 -0.25826392 -0.008764058 -0.18402721
000040 03 19 91 3f 89 17 5e 3f 0d 32 3e bf c9 fd 96 3f
       1.1335758 0.8675466 -0.7429512 1.1796199
000050 d5 ba c9 3f e8 75 98 bf 2b 9d 8f bf 93 13 3b bf
       1.5760142 -1.1910982 -1.1219839 -0.7307674
000060 83 a6 b0 bf fa 7b 7a 3f 07 4f 96 3e d8 f3 9b bf
       -1.3800815 0.97845423 0.29357168 -1.218379
000070 47 50 5b 3f 45 30 cf 3f 9a b2 c2 3f 22 fe ea 3e
       0.8566937 1.6186606 1.5210755 0.45897013
000080 c1 55 36 be e8 c7 21 3d a0 06 99 be e6 41 2d 3d
       -0.1780615 0.039497286 -0.29887867 0.042299174
000090 da f3 ba be a2 f2 29 be fd 8b e1 3d 3e 94 16 3e
       -0.3651417 -0.16596463 0.11013029 0.14704987
0000a0 ef b6 1b 3f cd 98 f8 be 0e 64 70 bf 54 bd 3f bf
       0.6082601 -0.48554078 -0.9390267 -0.74898267
0000b0 bc 25 0c 3f 3a 99 db be 23 32 fb 3e be 83 41 be
       0.5474508 -0.4289034 0.4906169 -0.18897912
0000c0 0b c5 a0 3f 5d 6e d2 3f 8b 3b 93 bf 48 ed 96 3e
       1.2560133 1.643993 -1.1502546 0.29477906
0000d0 63 91 9a 3f 13 79 1f be 8e c6 f2 bd a8 3a 09 bf
       1.2075619 -0.1557353 -0.118542776 -0.5360513
0000e0 e4 8a 9e 3f b9 04 df be 17 d2 aa 3f d5 d5 cd 3f
       1.2386136 -0.4355829 1.3345364 1.6080881
0000f0 a4 6a 0d 3d 2a 2c e2 3e c2 7b 2e bf 02 e7 b4 3f
       0.03452553 0.4417432 -0.6815759 1.4132998

l2.bias f4 [8]
000000 9d 15 89 3e b5 06 a3 be 25 c2 33 3f 2b 99 27 3f
       0.26774302 -0.31841055 0.70218116 0.6546809
000010 cb 40 96 bd 5a 96 b6 be fb 84 3f 3f 00 5c 39 3e
       -0.07336577 -0.35661584 0.7481229 0.18101501

l3.weight f4 [7, 8]
000000 c7 e7 f3 3e d0 b3 a3 3d 60 c2 41 bf 95 ba dd bf
       0.4763777 0.07993281 -0.7568722 -1.7322565
000010 cb 22 af be 70 66 41 bf a7 16 98 bf 98 39 35 3f
       -0.34206232 -0.7554693 -1.1881913 0.70791006
000020 6a e5 be 3e bd f2 15 be 2a 55 a1 bf 2d 94 04 bd
       0.37284404 -0.14643379 -1.2604115 -0.032367874
000030 a0 82 20 3e 28 25 42 bf a7 4d 1a 3b 2c e5 1b 3e
       0.1567483 -0.75837946 0.002354482 0.15224141
000040 ad bd ba bf fd d4 8e be e2 f8 5e 3f 84 07 cd bf
       -1.4589134 -0.27896872 0.87098515 -1.6017919
000050 fb f7 3a 3e 77 58 44 bd 27 f0 50 3f 5b 70 ba bc
       0.1825866 -0.04793593 0.81616443 -0.022758653
000060 86 22 24 bc 64 a0 b7 bd fd 36 f2 3e b7 7a b3 bf
       -0.010017997 -0.08966139 0.47307578 -1.4021825
000070 bb 95 8c 3e 9a 01 1c bf 0d a0 fc bd 9a 05 02 3f
       0.27457985 -0.60939944 -0.12335215 0.507898
000080 d2 87 3b 3e 42 ac fe bd 31 41 cb be e0 a5 40 3f
       0.1831353 -0.12435199 -0.39698175 0.75253105
000090 fe 25 eb bd 93 32 3a bf 33 ee 96 bf 62 e0 f0 bf
       -0.11481856 -0.7273342 -1.1791443 -1.8818476
0000a0 ac 42 9b bf ef 83 3f be e8 94 ae bf fa 63 6e 3f
       -1.2129722 -0.18702672 -1.3639193 0.931213
0000b0 3c a1 e3 bc 84 d4 20 3f c6 aa b1 3e 09 76 92 bf
       -0.027786843 0.62824273 0.34700602 -1.1442271
0000c0 1f db cf bf 60 97 6c be 73 76 1c 3f 6d 7d 92 3e
       -1.6238745 -0.2310462 0.6111824 0.28611317
0000d0 62 be dc 3d dd 4b 94 bf 95 c6 09 3f 8c b5 aa bf
       0.107785 -1.1585652 0.5381864 -1.3336654

l3.bias f4 [7]
000000 d4 09 a0 bd 95 a6 1a 3f ef 13 09 3f d8 48 79 be
       -0.078143746 0.60410434 0.5354604 -0.24344194
000010 0f 9d 06 3e 80 9b 4d bd 58 6b af 3e
       0.1314585 -0.050197124 0.34261584
